…
           [479., 467., 445.,  ..., 489., 489., 489.],
           [485., 481., 473.,  ..., 489., 489., 489.],
           [489., 489., 489.,  ..., 489., 489., 489.]],

          [[479., 433., 359.,  ..., 483., 483., 483.],
           [429., 401., 357.,  ..., 483., 483., 483.],
           [347., 349., 351.,  ..., 483., 483., 483.],
           ...,
           [479., 467., 445.,  ..., 489., 489., 489.],
           [485., 481., 473.,  ..., 489., 489., 489.],
           [489., 489., 489.,  ..., 489., 489., 489.]]]]])
[2025-03-08 01:59:06,773] INFO in utils: Model : SwinVoxModel(
  (encoder): Encoder(
    (vgg): Sequential(
      (0): Conv2d(3, 64, kernel_size=(3, 3), stride=(1, 1), padding=(1, 1))
      (1): BatchNorm2d(64, eps=1e-05, momentum=0.1, affine=True, track_running_stats=True)
      (2): ReLU(inplace=True)
      (3): Conv2d(64, 64, kernel_size=(3, 3), stride=(1, 1), padding=(1, 1))
      (4): BatchNorm2d(64, eps=1e-05, momentum=0.1, affine=True, track_running_stats=True)
      (5): ReLU(inplace=True)
      (6): MaxPool2d(kernel_size=2, stride=2, padding=0, dilation=1, ceil_mode=False)
      (7): Conv2d(64, 128, kernel_size=(3, 3), stride=(1, 1), padding=(1, 1))
      (8): BatchNorm2d(128, eps=1e-05, momentum=0.1, affine=True, track_running_stats=True)
      (9): ReLU(inplace=True)
      (10): Conv2d(128, 128, kernel_size=(3, 3), stride=(1, 1), padding=(1, 1))
      (11): BatchNorm2d(128, eps=1e-05, momentum=0.1, affine=True, track_running_stats=True)
      (12): ReLU(inplace=True)
      (13): MaxPool2d(kernel_size=2, stride=2, padding=0, dilation=1, ceil_mode=False)
      (14): Conv2d(128, 256, kernel_size=(3, 3), stride=(1, 1), padding=(1, 1))
      (15): BatchNorm2d(256, eps=1e-05, momentum=0.1, affine=True, track_running_stats=True)
      (16): ReLU(inplace=True)
      (17): Conv2d(256, 256, kernel_size=(3, 3), stride=(1, 1), padding=(1, 1))
      (18): BatchNorm2d(256, eps=1e-05, momentum=0.1, affine=True, track_running_stats=True)
      (19): ReLU(inplace=True)
      (20): Conv2d(256, 256, kernel_size=(3, 3), stride=(1, 1), padding=(1, 1))
      (21): BatchNorm2d(256, eps=1e-05, momentum=0.1, affine=True, track_running_stats=True)
      (22): ReLU(inplace=True)
      (23): MaxPool2d(kernel_size=2, stride=2, padding=0, dilation=1, ceil_mode=False)
      (24): Conv2d(256, 512, kernel_size=(3, 3), stride=(1, 1), padding=(1, 1))
      (25): BatchNorm2d(512, eps=1e-05, momentum=0.1, affine=True, track_running_stats=True)
      (26): ReLU(inplace=True)
    )
    (layer1): Sequential(
      (0): Conv2d(512, 512, kernel_size=(3, 3), stride=(1, 1))
      (1): BatchNorm2d(512, eps=1e-05, momentum=0.1, affine=True, track_running_stats=True)
      (2): ELU(alpha=1.0)
    )
    (layer2): Sequential(
      (0): Conv2d(512, 512, kernel_size=(3, 3), stride=(1, 1))
      (1): BatchNorm2d(512, eps=1e-05, momentum=0.1, affine=True, track_running_stats=True)
      (2): ELU(alpha=1.0)
      (3): MaxPool2d(kernel_size=3, stride=3, padding=0, dilation=1, ceil_mode=False)
    )
    (layer3): Sequential(
      (0): Conv2d(512, 256, kernel_size=(1, 1), stride=(1, 1))
      (1): BatchNorm2d(256, eps=1e-05, momentum=0.1, affine=True, track_running_stats=True)
      (2): ELU(alpha=1.0)
    )
  )
  (decoder): Decoder(
    (layer1): Sequential(
      (0): ConvTranspose3d(2048, 512, kernel_size=(4, 4, 4), stride=(2, 2, 2), padding=(1, 1, 1), bias=False)
      (1): BatchNorm3d(512, eps=1e-05, momentum=0.1, affine=True, track_running_stats=True)
      (2): ReLU()
    )
    (layer2): Sequential(
      (0): ConvTranspose3d(512, 128, kernel_size=(4, 4, 4), stride=(2, 2, 2), padding=(1, 1, 1), bias=False)
      (1): BatchNorm3d(128, eps=1e-05, momentum=0.1, affine=True, track_running_stats=True)
      (2): ReLU()
    )
    (layer3): Sequential(
      (0): ConvTranspose3d(128, 32, kernel_size=(4, 4, 4), stride=(2, 2, 2), padding=(1, 1, 1), bias=False)
      (1): BatchNorm3d(32, eps=1e-05, momentum=0.1, affine=True, track_running_stats=True)
      (2): ReLU()
    )
    (layer4): Sequential(
      (0): ConvTranspose3d(32, 8, kernel_size=(4, 4, 4), stride=(2, 2, 2), padding=(1, 1, 1), bias=False)
      (1): BatchNorm3d(8, eps=1e-05, momentum=0.1, affine=True, track_running_stats=True)
      (2): ReLU()
    )
    (layer5): Sequential(
      (0): ConvTranspose3d(8, 1, kernel_size=(1, 1, 1), stride=(1, 1, 1), bias=False)
      (1): Sigmoid()
    )
  )
  (merger): Merger(
    (layer1): Sequential(
      (0): Conv3d(9, 16, kernel_size=(3, 3, 3), stride=(1, 1, 1), padding=(1, 1, 1))
      (1): BatchNorm3d(16, eps=1e-05, momentum=0.1, affine=True, track_running_stats=True)
      (2): LeakyReLU(negative_slope=0.2)
    )
    (layer2): Sequential(
      (0): Conv3d(16, 8, kernel_size=(3, 3, 3), stride=(1, 1, 1), padding=(1, 1, 1))
      (1): BatchNorm3d(8, eps=1e-05, momentum=0.1, affine=True, track_running_stats=True)
      (2): LeakyReLU(negative_slope=0.2)
    )
    (layer3): Sequential(
      (0): Conv3d(8, 4, kernel_size=(3, 3, 3), stride=(1, 1, 1), padding=(1, 1, 1))
      (1): BatchNorm3d(4, eps=1e-05, momentum=0.1, affine=True, track_running_stats=True)
      (2): LeakyReLU(negative_slope=0.2)
    )
    (layer4): Sequential(
      (0): Conv3d(4, 2, kernel_size=(3, 3, 3), stride=(1, 1, 1), padding=(1, 1, 1))
      (1): BatchNorm3d(2, eps=1e-05, momentum=0.1, affine=True, track_running_stats=True)
      (2): LeakyReLU(negative_slope=0.2)
    )
    (layer5): Sequential(
      (0): Conv3d(2, 1, kernel_size=(3, 3, 3), stride=(1, 1, 1), padding=(1, 1, 1))
      (1): BatchNorm3d(1, eps=1e-05, momentum=0.1, affine=True, track_running_stats=True)
      (2): LeakyReLU(negative_slope=0.2)
    )
  )
  (refiner): Refiner(
    (layer1): Sequential(
      (0): Conv3d(1, 32, kernel_size=(4, 4, 4), stride=(1, 1, 1), padding=(2, 2, 2))
      (1): BatchNorm3d(32, eps=1e-05, momentum=0.1, affine=True, track_running_stats=True)
      (2): LeakyReLU(negative_slope=0.2)
      (3): MaxPool3d(kernel_size=2, stride=2, padding=0, dilation=1, ceil_mode=False)
    )
    (layer2): Sequential(
      (0): Conv3d(32, 64, kernel_size=(4, 4, 4), stride=(1, 1, 1), padding=(2, 2, 2))
      (1): BatchNorm3d(64, eps=1e-05, momentum=0.1, affine=True, track_running_stats=True)
      (2): LeakyReLU(negative_slope=0.2)
      (3): MaxPool3d(kernel_size=2, stride=2, padding=0, dilation=1, ceil_mode=False)
    )
    (layer3): Sequential(
      (0): Conv3d(64, 128, kernel_size=(4, 4, 4), stride=(1, 1, 1), padding=(2, 2, 2))
      (1): BatchNorm3d(128, eps=1e-05, momentum=0.1, affine=True, track_running_stats=True)
      (2): LeakyReLU(negative_slope=0.2)
      (3): MaxPool3d(kernel_size=2, stride=2, padding=0, dilation=1, ceil_mode=False)
    )
    (layer4): Sequential(
      (0): Linear(in_features=8192, out_features=2048, bias=True)
      (1): ReLU()
    )
    (layer5): Sequential(
      (0): Linear(in_features=2048, out_features=8192, bias=True)
      (1): ReLU()
    )
    (layer6): Sequential(
      (0): ConvTranspose3d(128, 64, kernel_size=(4, 4, 4), stride=(2, 2, 2), padding=(1, 1, 1), bias=False)
      (1): BatchNorm3d(64, eps=1e-05, momentum=0.1, affine=True, track_running_stats=True)
      (2): ReLU()
    )
    (layer7): Sequential(
      (0): ConvTranspose3d(64, 32, kernel_size=(4, 4, 4), stride=(2, 2, 2), padding=(1, 1, 1), bias=False)
      (1): BatchNorm3d(32, eps=1e-05, momentum=0.1, affine=True, track_running_stats=True)
      (2): ReLU()
    )
    (layer8): Sequential(
      (0): ConvTranspose3d(32, 1, kernel_size=(4, 4, 4), stride=(2, 2, 2), padding=(1, 1, 1), bias=False)
      (1): Sigmoid()
    )
  )
)
[2025-03-08 01:59:06,959] DEBUG in model_architecture: [DEBUG] 2025-03-08 01:59:06.959885 Parameters in Encoder: 7772480.
[2025-03-08 01:59:07,005] DEBUG in model_architecture: [DEBUG] 2025-03-08 01:59:07.005296 Parameters in Decoder: 71583064.
[2025-03-08 01:59:07,007] DEBUG in model_architecture: [DEBUG] 2025-03-08 01:59:07.007297 Parameters in Merger: 8571.
…
